Model
Model: "model_30"
________________________________________________________________________________
Layer (type)              Output Shape      Param #  Connected to               
================================================================================
conv_input (InputLayer)   [(None, 201, 4)]  0                                   
________________________________________________________________________________
conv_motif (Conv1D)       (None, 182, 900)  72900    conv_input[0][0]           
________________________________________________________________________________
average_motif_signal (Ave (None, 15, 900)   0        conv_motif[0][0]           
________________________________________________________________________________
max_pooling_for_motif (Gl (None, 900)       0        average_motif_signal[0][0] 
________________________________________________________________________________
atac_input (InputLayer)   [(None, 1)]       0                                   
________________________________________________________________________________
concatenate_30 (Concatena (None, 901)       0        max_pooling_for_motif[0][0]
                                                     atac_input[0][0]           
________________________________________________________________________________
dropout_30 (Dropout)      (None, 901)       0        concatenate_30[0][0]       
________________________________________________________________________________
dense_61 (Dense)          (None, 100)       90200    dropout_30[0][0]           
________________________________________________________________________________
dense_60 (Dense)          (None, 1)         101      dense_61[0][0]             
________________________________________________________________________________
main_output (Activation)  (None, 1)         0        dense_60[0][0]             
================================================================================
Total params: 163,201
Trainable params: 163,201
Non-trainable params: 0
________________________________________________________________________________


