Model
Model: "model"
________________________________________________________________________________
Layer (type)              Output Shape      Param #  Connected to               
================================================================================
conv_input (InputLayer)   [(None, 201, 4)]  0                                   
________________________________________________________________________________
conv_motif (Conv1D)       (None, 182, 500)  40500    conv_input[0][0]           
________________________________________________________________________________
average_motif_signal (Ave (None, 11, 500)   0        conv_motif[0][0]           
________________________________________________________________________________
max_pooling_for_motif (Gl (None, 500)       0        average_motif_signal[0][0] 
________________________________________________________________________________
atac_input (InputLayer)   [(None, 1)]       0                                   
________________________________________________________________________________
concatenate (Concatenate) (None, 501)       0        max_pooling_for_motif[0][0]
                                                     atac_input[0][0]           
________________________________________________________________________________
dropout (Dropout)         (None, 501)       0        concatenate[0][0]          
________________________________________________________________________________
dense_1 (Dense)           (None, 100)       50200    dropout[0][0]              
________________________________________________________________________________
dense (Dense)             (None, 1)         101      dense_1[0][0]              
________________________________________________________________________________
main_output (Activation)  (None, 1)         0        dense[0][0]                
================================================================================
Total params: 90,801
Trainable params: 90,801
Non-trainable params: 0
________________________________________________________________________________


